…
    F_use_input_norm: True
    F_use_range_norm: False
    G_optimizer_betas: [0.9, 0.999]
    G_scheduler_restart_weights: 1
    G_optimizer_wd: 0
    G_optimizer_reuse: False
    G_param_strict: True
    E_param_strict: True
    E_decay: 0
  ]
  opt_path: options/train_drunet.json
  is_train: True
  merge_bn: False
  merge_bn_startpoint: -1
  find_unused_parameters: False
  use_static_graph: False
  dist: False
  num_gpu: 1
  rank: 0
  world_size: 1

25-07-25 17:15:55.148 : Number of train images: 12, iters: 1
25-07-25 17:15:57.024 : 
Networks name: UNetRes
Params number: 33165248
Net structure:
UNetRes(
  (m_head): Conv2d(4, 64, kernel_size=(3, 3), stride=(1, 1), padding=(1, 1), bias=False)
  (m_down1): Sequential(
    (0): ResBlock(
      (res): Sequential(
        (0): Conv2d(64, 64, kernel_size=(3, 3), stride=(1, 1), padding=(1, 1), bias=False)
        (1): ReLU(inplace=True)
        (2): Conv2d(64, 64, kernel_size=(3, 3), stride=(1, 1), padding=(1, 1), bias=False)
      )
    )
    (1): ResBlock(
      (res): Sequential(
        (0): Conv2d(64, 64, kernel_size=(3, 3), stride=(1, 1), padding=(1, 1), bias=False)
        (1): ReLU(inplace=True)
        (2): Conv2d(64, 64, kernel_size=(3, 3), stride=(1, 1), padding=(1, 1), bias=False)
      )
    )
    (2): ResBlock(
      (res): Sequential(
        (0): Conv2d(64, 64, kernel_size=(3, 3), stride=(1, 1), padding=(1, 1), bias=False)
        (1): ReLU(inplace=True)
        (2): Conv2d(64, 64, kernel_size=(3, 3), stride=(1, 1), padding=(1, 1), bias=False)
      )
    )
    (3): ResBlock(
      (res): Sequential(
        (0): Conv2d(64, 64, kernel_size=(3, 3), stride=(1, 1), padding=(1, 1), bias=False)
        (1): ReLU(inplace=True)
        (2): Conv2d(64, 64, kernel_size=(3, 3), stride=(1, 1), padding=(1, 1), bias=False)
      )
    )
    (4): Conv2d(64, 128, kernel_size=(2, 2), stride=(2, 2), bias=False)
  )
  (m_down2): Sequential(
    (0): ResBlock(
      (res): Sequential(
        (0): Conv2d(128, 128, kernel_size=(3, 3), stride=(1, 1), padding=(1, 1), bias=False)
        (1): ReLU(inplace=True)
        (2): Conv2d(128, 128, kernel_size=(3, 3), stride=(1, 1), padding=(1, 1), bias=False)
      )
    )
    (1): ResBlock(
      (res): Sequential(
        (0): Conv2d(128, 128, kernel_size=(3, 3), stride=(1, 1), padding=(1, 1), bias=False)
        (1): ReLU(inplace=True)
        (2): Conv2d(128, 128, kernel_size=(3, 3), stride=(1, 1), padding=(1, 1), bias=False)
      )
    )
    (2): ResBlock(
      (res): Sequential(
        (0): Conv2d(128, 128, kernel_size=(3, 3), stride=(1, 1), padding=(1, 1), bias=False)
        (1): ReLU(inplace=True)
        (2): Conv2d(128, 128, kernel_size=(3, 3), stride=(1, 1), padding=(1, 1), bias=False)
      )
    )
    (3): ResBlock(
      (res): Sequential(
        (0): Conv2d(128, 128, kernel_size=(3, 3), stride=(1, 1), padding=(1, 1), bias=False)
        (1): ReLU(inplace=True)
        (2): Conv2d(128, 128, kernel_size=(3, 3), stride=(1, 1), padding=(1, 1), bias=False)
      )
    )
    (4): Conv2d(128, 256, kernel_size=(2, 2), stride=(2, 2), bias=False)
  )
  (m_down3): Sequential(
    (0): ResBlock(
      (res): Sequential(
        (0): Conv2d(256, 256, kernel_size=(3, 3), stride=(1, 1), padding=(1, 1), bias=False)
        (1): ReLU(inplace=True)
        (2): Conv2d(256, 256, kernel_size=(3, 3), stride=(1, 1), padding=(1, 1), bias=False)
      )
    )
    (1): ResBlock(
      (res): Sequential(
        (0): Conv2d(256, 256, kernel_size=(3, 3), stride=(1, 1), padding=(1, 1), bias=False)
        (1): ReLU(inplace=True)
        (2): Conv2d(256, 256, kernel_size=(3, 3), stride=(1, 1), padding=(1, 1), bias=False)
      )
    )
    (2): ResBlock(
      (res): Sequential(
        (0): Conv2d(256, 256, kernel_size=(3, 3), stride=(1, 1), padding=(1, 1), bias=False)
        (1): ReLU(inplace=True)
        (2): Conv2d(256, 256, kernel_size=(3, 3), stride=(1, 1), padding=(1, 1), bias=False)
      )
    )
    (3): ResBlock(
      (res): Sequential(
        (0): Conv2d(256, 256, kernel_size=(3, 3), stride=(1, 1), padding=(1, 1), bias=False)
        (1): ReLU(inplace=True)
        (2): Conv2d(256, 256, kernel_size=(3, 3), stride=(1, 1), padding=(1, 1), bias=False)
      )
    )
    (4): Conv2d(256, 512, kernel_size=(2, 2), stride=(2, 2), bias=False)
  )
  (m_body): Sequential(
    (0): ResBlock(
      (res): Sequential(
        (0): Conv2d(512, 512, kernel_size=(3, 3), stride=(1, 1), padding=(1, 1), bias=False)
        (1): ReLU(inplace=True)
        (2): Conv2d(512, 512, kernel_size=(3, 3), stride=(1, 1), padding=(1, 1), bias=False)
      )
    )
    (1): ResBlock(
      (res): Sequential(
        (0): Conv2d(512, 512, kernel_size=(3, 3), stride=(1, 1), padding=(1, 1), bias=False)
        (1): ReLU(inplace=True)
        (2): Conv2d(512, 512, kernel_size=(3, 3), stride=(1, 1), padding=(1, 1), bias=False)
      )
    )
    (2): ResBlock(
      (res): Sequential(
        (0): Conv2d(512, 512, kernel_size=(3, 3), stride=(1, 1), padding=(1, 1), bias=False)
        (1): ReLU(inplace=True)
        (2): Conv2d(512, 512, kernel_size=(3, 3), stride=(1, 1), padding=(1, 1), bias=False)
      )
    )
    (3): ResBlock(
      (res): Sequential(
        (0): Conv2d(512, 512, kernel_size=(3, 3), stride=(1, 1), padding=(1, 1), bias=False)
        (1): ReLU(inplace=True)
        (2): Conv2d(512, 512, kernel_size=(3, 3), stride=(1, 1), padding=(1, 1), bias=False)
      )
    )
  )
  (non_local): NonLocalBlock(
    (g): Conv2d(512, 256, kernel_size=(1, 1), stride=(1, 1), bias=False)
    (theta): Conv2d(512, 256, kernel_size=(1, 1), stride=(1, 1), bias=False)
    (phi): Conv2d(512, 256, kernel_size=(1, 1), stride=(1, 1), bias=False)
    (W): Conv2d(256, 512, kernel_size=(1, 1), stride=(1, 1), bias=False)
  )
  (m_up3): Sequential(
    (0): ConvTranspose2d(512, 256, kernel_size=(2, 2), stride=(2, 2), bias=False)
    (1): ResBlock(
      (res): Sequential(
        (0): Conv2d(256, 256, kernel_size=(3, 3), stride=(1, 1), padding=(1, 1), bias=False)
        (1): ReLU(inplace=True)
        (2): Conv2d(256, 256, kernel_size=(3, 3), stride=(1, 1), padding=(1, 1), bias=False)
      )
    )
    (2): ResBlock(
      (res): Sequential(
        (0): Conv2d(256, 256, kernel_size=(3, 3), stride=(1, 1), padding=(1, 1), bias=False)
        (1): ReLU(inplace=True)
        (2): Conv2d(256, 256, kernel_size=(3, 3), stride=(1, 1), padding=(1, 1), bias=False)
      )
    )
    (3): ResBlock(
      (res): Sequential(
        (0): Conv2d(256, 256, kernel_size=(3, 3), stride=(1, 1), padding=(1, 1), bias=False)
        (1): ReLU(inplace=True)
        (2): Conv2d(256, 256, kernel_size=(3, 3), stride=(1, 1), padding=(1, 1), bias=False)
      )
    )
    (4): ResBlock(
      (res): Sequential(
        (0): Conv2d(256, 256, kernel_size=(3, 3), stride=(1, 1), padding=(1, 1), bias=False)
        (1): ReLU(inplace=True)
        (2): Conv2d(256, 256, kernel_size=(3, 3), stride=(1, 1), padding=(1, 1), bias=False)
      )
    )
  )
  (m_up2): Sequential(
    (0): ConvTranspose2d(256, 128, kernel_size=(2, 2), stride=(2, 2), bias=False)
    (1): ResBlock(
      (res): Sequential(
        (0): Conv2d(128, 128, kernel_size=(3, 3), stride=(1, 1), padding=(1, 1), bias=False)
        (1): ReLU(inplace=True)
        (2): Conv2d(128, 128, kernel_size=(3, 3), stride=(1, 1), padding=(1, 1), bias=False)
      )
    )
    (2): ResBlock(
      (res): Sequential(
        (0): Conv2d(128, 128, kernel_size=(3, 3), stride=(1, 1), padding=(1, 1), bias=False)
        (1): ReLU(inplace=True)
        (2): Conv2d(128, 128, kernel_size=(3, 3), stride=(1, 1), padding=(1, 1), bias=False)
      )
    )
    (3): ResBlock(
      (res): Sequential(
        (0): Conv2d(128, 128, kernel_size=(3, 3), stride=(1, 1), padding=(1, 1), bias=False)
        (1): ReLU(inplace=True)
        (2): Conv2d(128, 128, kernel_size=(3, 3), stride=(1, 1), padding=(1, 1), bias=False)
      )
    )
    (4): ResBlock(
      (res): Sequential(
        (0): Conv2d(128, 128, kernel_size=(3, 3), stride=(1, 1), padding=(1, 1), bias=False)
        (1): ReLU(inplace=True)
        (2): Conv2d(128, 128, kernel_size=(3, 3), stride=(1, 1), padding=(1, 1), bias=False)
      )
    )
  )
  (m_up1): Sequential(
    (0): ConvTranspose2d(128, 64, kernel_size=(2, 2), stride=(2, 2), bias=False)
    (1): ResBlock(
      (res): Sequential(
        (0): Conv2d(64, 64, kernel_size=(3, 3), stride=(1, 1), padding=(1, 1), bias=False)
        (1): ReLU(inplace=True)
        (2): Conv2d(64, 64, kernel_size=(3, 3), stride=(1, 1), padding=(1, 1), bias=False)
      )
    )
    (2): ResBlock(
      (res): Sequential(
        (0): Conv2d(64, 64, kernel_size=(3, 3), stride=(1, 1), padding=(1, 1), bias=False)
        (1): ReLU(inplace=True)
        (2): Conv2d(64, 64, kernel_size=(3, 3), stride=(1, 1), padding=(1, 1), bias=False)
      )
    )
    (3): ResBlock(
      (res): Sequential(
        (0): Conv2d(64, 64, kernel_size=(3, 3), stride=(1, 1), padding=(1, 1), bias=False)
        (1): ReLU(inplace=True)
        (2): Conv2d(64, 64, kernel_size=(3, 3), stride=(1, 1), padding=(1, 1), bias=False)
      )
    )
    (4): ResBlock(
      (res): Sequential(
        (0): Conv2d(64, 64, kernel_size=(3, 3), stride=(1, 1), padding=(1, 1), bias=False)
        (1): ReLU(inplace=True)
        (2): Conv2d(64, 64, kernel_size=(3, 3), stride=(1, 1), padding=(1, 1), bias=False)
      )
    )
  )
  (m_tail): Conv2d(64, 3, kernel_size=(3, 3), stride=(1, 1), padding=(1, 1), bias=False)
)

25-07-25 17:15:57.253 : 
 |  mean  |  min   |  max   |  std   || shape               
 | -0.000 | -0.079 |  0.082 |  0.025 | torch.Size([64, 4, 3, 3]) || m_head.weight
 | -0.000 | -0.033 |  0.034 |  0.008 | torch.Size([64, 64, 3, 3]) || m_down1.0.res.0.weight
 | -0.000 | -0.038 |  0.035 |  0.008 | torch.Size([64, 64, 3, 3]) || m_down1.0.res.2.weight
…
    G_scheduler_restart_weights: 1
    G_optimizer_wd: 0
    G_optimizer_reuse: False
    G_param_strict: True
    E_param_strict: True
    E_decay: 0
  ]
  opt_path: options/train_drunet.json
  is_train: True
  merge_bn: False
  merge_bn_startpoint: -1
  find_unused_parameters: False
  use_static_graph: False
  dist: False
  num_gpu: 1
  rank: 0
  world_size: 1

25-07-31 11:42:25.121 : Number of train images: 12, iters: 3
25-07-31 11:42:30.252 : 
Networks name: TopLevelTracedModule
Params number: 33165248
Net structure:
DataParallel(
  original_name=DataParallel
  (module): UNetRes(
    original_name=UNetRes
    (m_head): Conv2d(original_name=Conv2d)
    (m_down1): Sequential(
      original_name=Sequential
      (0): ResBlock(
        original_name=ResBlock
        (res): Sequential(
          original_name=Sequential
          (0): Conv2d(original_name=Conv2d)
          (1): ReLU(original_name=ReLU)
          (2): Conv2d(original_name=Conv2d)
        )
      )
      (1): ResBlock(
        original_name=ResBlock
        (res): Sequential(
          original_name=Sequential
          (0): Conv2d(original_name=Conv2d)
          (1): ReLU(original_name=ReLU)
          (2): Conv2d(original_name=Conv2d)
        )
      )
      (2): ResBlock(
        original_name=ResBlock
        (res): Sequential(
          original_name=Sequential
          (0): Conv2d(original_name=Conv2d)
          (1): ReLU(original_name=ReLU)
          (2): Conv2d(original_name=Conv2d)
        )
      )
      (3): ResBlock(
        original_name=ResBlock
        (res): Sequential(
          original_name=Sequential
          (0): Conv2d(original_name=Conv2d)
          (1): ReLU(original_name=ReLU)
          (2): Conv2d(original_name=Conv2d)
        )
      )
      (4): Conv2d(original_name=Conv2d)
    )
    (m_down2): Sequential(
      original_name=Sequential
      (0): ResBlock(
        original_name=ResBlock
        (res): Sequential(
          original_name=Sequential
          (0): Conv2d(original_name=Conv2d)
          (1): ReLU(original_name=ReLU)
          (2): Conv2d(original_name=Conv2d)
        )
      )
      (1): ResBlock(
        original_name=ResBlock
        (res): Sequential(
          original_name=Sequential
          (0): Conv2d(original_name=Conv2d)
          (1): ReLU(original_name=ReLU)
          (2): Conv2d(original_name=Conv2d)
        )
      )
      (2): ResBlock(
        original_name=ResBlock
        (res): Sequential(
          original_name=Sequential
          (0): Conv2d(original_name=Conv2d)
          (1): ReLU(original_name=ReLU)
          (2): Conv2d(original_name=Conv2d)
        )
      )
      (3): ResBlock(
        original_name=ResBlock
        (res): Sequential(
          original_name=Sequential
          (0): Conv2d(original_name=Conv2d)
          (1): ReLU(original_name=ReLU)
          (2): Conv2d(original_name=Conv2d)
        )
      )
      (4): Conv2d(original_name=Conv2d)
    )
    (m_down3): Sequential(
      original_name=Sequential
      (0): ResBlock(
        original_name=ResBlock
        (res): Sequential(
          original_name=Sequential
          (0): Conv2d(original_name=Conv2d)
          (1): ReLU(original_name=ReLU)
          (2): Conv2d(original_name=Conv2d)
        )
      )
      (1): ResBlock(
        original_name=ResBlock
        (res): Sequential(
          original_name=Sequential
          (0): Conv2d(original_name=Conv2d)
          (1): ReLU(original_name=ReLU)
          (2): Conv2d(original_name=Conv2d)
        )
      )
      (2): ResBlock(
        original_name=ResBlock
        (res): Sequential(
          original_name=Sequential
          (0): Conv2d(original_name=Conv2d)
          (1): ReLU(original_name=ReLU)
          (2): Conv2d(original_name=Conv2d)
        )
      )
      (3): ResBlock(
        original_name=ResBlock
        (res): Sequential(
          original_name=Sequential
          (0): Conv2d(original_name=Conv2d)
          (1): ReLU(original_name=ReLU)
          (2): Conv2d(original_name=Conv2d)
        )
      )
      (4): Conv2d(original_name=Conv2d)
    )
    (m_body): Sequential(
      original_name=Sequential
      (0): ResBlock(
        original_name=ResBlock
        (res): Sequential(
          original_name=Sequential
          (0): Conv2d(original_name=Conv2d)
          (1): ReLU(original_name=ReLU)
          (2): Conv2d(original_name=Conv2d)
        )
      )
      (1): ResBlock(
        original_name=ResBlock
        (res): Sequential(
          original_name=Sequential
          (0): Conv2d(original_name=Conv2d)
          (1): ReLU(original_name=ReLU)
          (2): Conv2d(original_name=Conv2d)
        )
      )
      (2): ResBlock(
        original_name=ResBlock
        (res): Sequential(
          original_name=Sequential
          (0): Conv2d(original_name=Conv2d)
          (1): ReLU(original_name=ReLU)
          (2): Conv2d(original_name=Conv2d)
        )
      )
      (3): ResBlock(
        original_name=ResBlock
        (res): Sequential(
          original_name=Sequential
          (0): Conv2d(original_name=Conv2d)
          (1): ReLU(original_name=ReLU)
          (2): Conv2d(original_name=Conv2d)
        )
      )
    )
    (non_local): NonLocalBlock(
      original_name=NonLocalBlock
      (g): Conv2d(original_name=Conv2d)
      (theta): Conv2d(original_name=Conv2d)
      (phi): Conv2d(original_name=Conv2d)
      (W): Conv2d(original_name=Conv2d)
    )
    (m_up3): Sequential(
      original_name=Sequential
      (0): ConvTranspose2d(original_name=ConvTranspose2d)
      (1): ResBlock(
        original_name=ResBlock
        (res): Sequential(
          original_name=Sequential
          (0): Conv2d(original_name=Conv2d)
          (1): ReLU(original_name=ReLU)
          (2): Conv2d(original_name=Conv2d)
        )
      )
      (2): ResBlock(
        original_name=ResBlock
        (res): Sequential(
          original_name=Sequential
          (0): Conv2d(original_name=Conv2d)
          (1): ReLU(original_name=ReLU)
          (2): Conv2d(original_name=Conv2d)
        )
      )
      (3): ResBlock(
        original_name=ResBlock
        (res): Sequential(
          original_name=Sequential
          (0): Conv2d(original_name=Conv2d)
          (1): ReLU(original_name=ReLU)
          (2): Conv2d(original_name=Conv2d)
        )
      )
      (4): ResBlock(
        original_name=ResBlock
        (res): Sequential(
          original_name=Sequential
          (0): Conv2d(original_name=Conv2d)
          (1): ReLU(original_name=ReLU)
          (2): Conv2d(original_name=Conv2d)
        )
      )
    )
    (m_up2): Sequential(
      original_name=Sequential
      (0): ConvTranspose2d(original_name=ConvTranspose2d)
      (1): ResBlock(
        original_name=ResBlock
        (res): Sequential(
          original_name=Sequential
          (0): Conv2d(original_name=Conv2d)
          (1): ReLU(original_name=ReLU)
          (2): Conv2d(original_name=Conv2d)
        )
      )
      (2): ResBlock(
        original_name=ResBlock
        (res): Sequential(
          original_name=Sequential
          (0): Conv2d(original_name=Conv2d)
          (1): ReLU(original_name=ReLU)
          (2): Conv2d(original_name=Conv2d)
        )
      )
      (3): ResBlock(
        original_name=ResBlock
        (res): Sequential(
          original_name=Sequential
          (0): Conv2d(original_name=Conv2d)
          (1): ReLU(original_name=ReLU)
          (2): Conv2d(original_name=Conv2d)
        )
      )
      (4): ResBlock(
        original_name=ResBlock
        (res): Sequential(
          original_name=Sequential
          (0): Conv2d(original_name=Conv2d)
          (1): ReLU(original_name=ReLU)
          (2): Conv2d(original_name=Conv2d)
        )
      )
    )
    (m_up1): Sequential(
      original_name=Sequential
      (0): ConvTranspose2d(original_name=ConvTranspose2d)
      (1): ResBlock(
        original_name=ResBlock
        (res): Sequential(
          original_name=Sequential
          (0): Conv2d(original_name=Conv2d)
          (1): ReLU(original_name=ReLU)
          (2): Conv2d(original_name=Conv2d)
        )
      )
      (2): ResBlock(
        original_name=ResBlock
        (res): Sequential(
          original_name=Sequential
          (0): Conv2d(original_name=Conv2d)
          (1): ReLU(original_name=ReLU)
          (2): Conv2d(original_name=Conv2d)
        )
      )
      (3): ResBlock(
        original_name=ResBlock
        (res): Sequential(
          original_name=Sequential
          (0): Conv2d(original_name=Conv2d)
          (1): ReLU(original_name=ReLU)
          (2): Conv2d(original_name=Conv2d)
        )
      )
      (4): ResBlock(
        original_name=ResBlock
        (res): Sequential(
          original_name=Sequential
          (0): Conv2d(original_name=Conv2d)
          (1): ReLU(original_name=ReLU)
          (2): Conv2d(original_name=Conv2d)
        )
      )
    )
    (m_tail): Conv2d(original_name=Conv2d)
  )
)

25-07-31 11:42:30.339 : 
 |  mean  |  min   |  max   |  std   || shape               
 |  0.000 | -0.098 |  0.094 |  0.025 | torch.Size([64, 4, 3, 3]) || module.m_head.weight
 | -0.000 | -0.031 |  0.038 |  0.008 | torch.Size([64, 64, 3, 3]) || module.m_down1.0.res.0.weight
 |  0.000 | -0.033 |  0.037 |  0.008 | torch.Size([64, 64, 3, 3]) || module.m_down1.0.res.2.weight
…
    G_scheduler_restart_weights: 1
    G_optimizer_wd: 0
    G_optimizer_reuse: False
    G_param_strict: True
    E_param_strict: True
    E_decay: 0
  ]
  opt_path: options/train_drunet.json
  is_train: True
  merge_bn: False
  merge_bn_startpoint: -1
  find_unused_parameters: False
  use_static_graph: False
  dist: False
  num_gpu: 1
  rank: 0
  world_size: 1

25-07-31 16:03:56.640 : Number of train images: 12, iters: 3
25-07-31 16:04:17.877 : 
Networks name: TopLevelTracedModule
Params number: 33296960
Net structure:
DataParallel(
  original_name=DataParallel
  (module): UNetRes(
    original_name=UNetRes
    (m_head): Conv2d(original_name=Conv2d)
    (m_down1): Sequential(
      original_name=Sequential
      (0): ResBlock(
        original_name=ResBlock
        (res): Sequential(
          original_name=Sequential
          (0): Conv2d(original_name=Conv2d)
          (1): ReLU(original_name=ReLU)
          (2): Conv2d(original_name=Conv2d)
        )
      )
      (1): ResBlock(
        original_name=ResBlock
        (res): Sequential(
          original_name=Sequential
          (0): Conv2d(original_name=Conv2d)
          (1): ReLU(original_name=ReLU)
          (2): Conv2d(original_name=Conv2d)
        )
      )
      (2): ResBlock(
        original_name=ResBlock
        (res): Sequential(
          original_name=Sequential
          (0): Conv2d(original_name=Conv2d)
          (1): ReLU(original_name=ReLU)
          (2): Conv2d(original_name=Conv2d)
        )
      )
      (3): ResBlock(
        original_name=ResBlock
        (res): Sequential(
          original_name=Sequential
          (0): Conv2d(original_name=Conv2d)
          (1): ReLU(original_name=ReLU)
          (2): Conv2d(original_name=Conv2d)
        )
      )
      (4): Conv2d(original_name=Conv2d)
    )
    (m_down2): Sequential(
      original_name=Sequential
      (0): ResBlock(
        original_name=ResBlock
        (res): Sequential(
          original_name=Sequential
          (0): Conv2d(original_name=Conv2d)
          (1): ReLU(original_name=ReLU)
          (2): Conv2d(original_name=Conv2d)
        )
      )
      (1): ResBlock(
        original_name=ResBlock
        (res): Sequential(
          original_name=Sequential
          (0): Conv2d(original_name=Conv2d)
          (1): ReLU(original_name=ReLU)
          (2): Conv2d(original_name=Conv2d)
        )
      )
      (2): ResBlock(
        original_name=ResBlock
        (res): Sequential(
          original_name=Sequential
          (0): Conv2d(original_name=Conv2d)
          (1): ReLU(original_name=ReLU)
          (2): Conv2d(original_name=Conv2d)
        )
      )
      (3): ResBlock(
        original_name=ResBlock
        (res): Sequential(
          original_name=Sequential
          (0): Conv2d(original_name=Conv2d)
          (1): ReLU(original_name=ReLU)
          (2): Conv2d(original_name=Conv2d)
        )
      )
      (4): Conv2d(original_name=Conv2d)
    )
    (m_down3): Sequential(
      original_name=Sequential
      (0): ResBlock(
        original_name=ResBlock
        (res): Sequential(
          original_name=Sequential
          (0): Conv2d(original_name=Conv2d)
          (1): ReLU(original_name=ReLU)
          (2): Conv2d(original_name=Conv2d)
        )
      )
      (1): ResBlock(
        original_name=ResBlock
        (res): Sequential(
          original_name=Sequential
          (0): Conv2d(original_name=Conv2d)
          (1): ReLU(original_name=ReLU)
          (2): Conv2d(original_name=Conv2d)
        )
      )
      (2): ResBlock(
        original_name=ResBlock
        (res): Sequential(
          original_name=Sequential
          (0): Conv2d(original_name=Conv2d)
          (1): ReLU(original_name=ReLU)
          (2): Conv2d(original_name=Conv2d)
        )
      )
      (3): ResBlock(
        original_name=ResBlock
        (res): Sequential(
          original_name=Sequential
          (0): Conv2d(original_name=Conv2d)
          (1): ReLU(original_name=ReLU)
          (2): Conv2d(original_name=Conv2d)
        )
      )
      (4): Conv2d(original_name=Conv2d)
    )
    (m_body): Sequential(
      original_name=Sequential
      (0): ResBlock(
        original_name=ResBlock
        (res): Sequential(
          original_name=Sequential
          (0): Conv2d(original_name=Conv2d)
          (1): ReLU(original_name=ReLU)
          (2): Conv2d(original_name=Conv2d)
        )
      )
      (1): ResBlock(
        original_name=ResBlock
        (res): Sequential(
          original_name=Sequential
          (0): Conv2d(original_name=Conv2d)
          (1): ReLU(original_name=ReLU)
          (2): Conv2d(original_name=Conv2d)
        )
      )
      (2): ResBlock(
        original_name=ResBlock
        (res): Sequential(
          original_name=Sequential
          (0): Conv2d(original_name=Conv2d)
          (1): ReLU(original_name=ReLU)
          (2): Conv2d(original_name=Conv2d)
        )
      )
      (3): ResBlock(
        original_name=ResBlock
        (res): Sequential(
          original_name=Sequential
          (0): Conv2d(original_name=Conv2d)
          (1): ReLU(original_name=ReLU)
          (2): Conv2d(original_name=Conv2d)
        )
      )
    )
    (non_local): ColorPreservingNonLocalBlock(
      original_name=ColorPreservingNonLocalBlock
      (g): Conv2d(original_name=Conv2d)
      (theta): Conv2d(original_name=Conv2d)
      (phi): Conv2d(original_name=Conv2d)
      (W): Conv2d(original_name=Conv2d)
      (color_gate): Sequential(
        original_name=Sequential
        (0): AdaptiveAvgPool2d(original_name=AdaptiveAvgPool2d)
        (1): Conv2d(original_name=Conv2d)
        (2): ReLU(original_name=ReLU)
        (3): Conv2d(original_name=Conv2d)
        (4): Sigmoid(original_name=Sigmoid)
      )
    )
    (m_up3): Sequential(
      original_name=Sequential
      (0): ConvTranspose2d(original_name=ConvTranspose2d)
      (1): ResBlock(
        original_name=ResBlock
        (res): Sequential(
          original_name=Sequential
          (0): Conv2d(original_name=Conv2d)
          (1): ReLU(original_name=ReLU)
          (2): Conv2d(original_name=Conv2d)
        )
      )
      (2): ResBlock(
        original_name=ResBlock
        (res): Sequential(
          original_name=Sequential
          (0): Conv2d(original_name=Conv2d)
          (1): ReLU(original_name=ReLU)
          (2): Conv2d(original_name=Conv2d)
        )
      )
      (3): ResBlock(
        original_name=ResBlock
        (res): Sequential(
          original_name=Sequential
          (0): Conv2d(original_name=Conv2d)
          (1): ReLU(original_name=ReLU)
          (2): Conv2d(original_name=Conv2d)
        )
      )
      (4): ResBlock(
        original_name=ResBlock
        (res): Sequential(
          original_name=Sequential
          (0): Conv2d(original_name=Conv2d)
          (1): ReLU(original_name=ReLU)
          (2): Conv2d(original_name=Conv2d)
        )
      )
    )
    (m_up2): Sequential(
      original_name=Sequential
      (0): ConvTranspose2d(original_name=ConvTranspose2d)
      (1): ResBlock(
        original_name=ResBlock
        (res): Sequential(
          original_name=Sequential
          (0): Conv2d(original_name=Conv2d)
          (1): ReLU(original_name=ReLU)
          (2): Conv2d(original_name=Conv2d)
        )
      )
      (2): ResBlock(
        original_name=ResBlock
        (res): Sequential(
          original_name=Sequential
          (0): Conv2d(original_name=Conv2d)
          (1): ReLU(original_name=ReLU)
          (2): Conv2d(original_name=Conv2d)
        )
      )
      (3): ResBlock(
        original_name=ResBlock
        (res): Sequential(
          original_name=Sequential
          (0): Conv2d(original_name=Conv2d)
          (1): ReLU(original_name=ReLU)
          (2): Conv2d(original_name=Conv2d)
        )
      )
      (4): ResBlock(
        original_name=ResBlock
        (res): Sequential(
          original_name=Sequential
          (0): Conv2d(original_name=Conv2d)
          (1): ReLU(original_name=ReLU)
          (2): Conv2d(original_name=Conv2d)
        )
      )
    )
    (m_up1): Sequential(
      original_name=Sequential
      (0): ConvTranspose2d(original_name=ConvTranspose2d)
      (1): ResBlock(
        original_name=ResBlock
        (res): Sequential(
          original_name=Sequential
          (0): Conv2d(original_name=Conv2d)
          (1): ReLU(original_name=ReLU)
          (2): Conv2d(original_name=Conv2d)
        )
      )
      (2): ResBlock(
        original_name=ResBlock
        (res): Sequential(
          original_name=Sequential
          (0): Conv2d(original_name=Conv2d)
          (1): ReLU(original_name=ReLU)
          (2): Conv2d(original_name=Conv2d)
        )
      )
      (3): ResBlock(
        original_name=ResBlock
        (res): Sequential(
          original_name=Sequential
          (0): Conv2d(original_name=Conv2d)
          (1): ReLU(original_name=ReLU)
          (2): Conv2d(original_name=Conv2d)
        )
      )
      (4): ResBlock(
        original_name=ResBlock
        (res): Sequential(
          original_name=Sequential
          (0): Conv2d(original_name=Conv2d)
          (1): ReLU(original_name=ReLU)
          (2): Conv2d(original_name=Conv2d)
        )
      )
    )
    (m_tail): Conv2d(original_name=Conv2d)
  )
)

25-07-31 16:04:17.966 : 
 |  mean  |  min   |  max   |  std   || shape               
 |  0.000 | -0.077 |  0.089 |  0.025 | torch.Size([64, 4, 3, 3]) || module.m_head.weight
 | -0.000 | -0.037 |  0.034 |  0.008 | torch.Size([64, 64, 3, 3]) || module.m_down1.0.res.0.weight
 |  0.000 | -0.033 |  0.031 |  0.008 | torch.Size([64, 64, 3, 3]) || module.m_down1.0.res.2.weight
…
